lightning_logs/AE_CNN/benchmarkCNN/checkpoints/epoch=40-step=19885.ckpt (torch, 602911 bytes, 48 tensors)

encoder.model.0.weight f4 [16, 4, 3]
00000000: f2f4 95bd 1981 8f3e 7b41 63bc 0b13 823c
00000010: 00c8 31be d2b9 1c3e 8019 823e 3f98 4ebe
00000020: 0082 8e3e 6b0f 0fbd b0c6 2b3e e024 683d
00000030: 72ba 3a3e 6346 e3bb e365 533e 30c8 f33d
00000040: 9d1d 4cbd 0ee6 0a3e 2ad5 5cbd 46b4 583d
00000050: 3179 5ebd c645 233e 4f2f a6be 9688 bbbe
00000060: b099 dfbd d5dc 42be 63be 043d 9716 c2be
00000070: 054e 313e 45d1 a4be 6415 043e eb71 1fbd
00000080: 494c 2dbe bf80 4d3e c1f7 f13d 4456 c23e
00000090: 1d05 2b3d 2180 81bd befa f93d 2ea5 cebd
000000a0: b79e d63d ebe3 7e3e b386 473e 3482 bbbd
000000b0: cdb3 563e 8d0b b43c 747f 113e 46bb 23be
000000c0: 023b 56be e368 63bd 2c16 55be 9a35 9e3e
000000d0: 23f5 163e 2a8e 273e 3d65 153e 874c 273d
000000e0: a159 803e 557d 36be fb17 04bd 2bf7 b5be
000000f0: c012 af3d 6992 b7bd 9572 f43d 97f7 07be
00000100: 9007 2c3e e407 6ebe 01f8 5bbe 757e 59be
00000110: 01ba 6b3e b0bf 213e 4a10 cc3e bf72 79bd
00000120: 5e1a 9bbe 1130 85be 5052 78be 129b 0f3e
00000130: 15f9 f13d 1b9a 7e3e f2bc 08be 7229 42be
00000140: 2e03 1e3e 6e4a 813d b95c b33e ce5e cb3d
00000150: 4e89 0f3e b324 8ebe 2c1f 80be e200 ba3d
00000160: b146 5c3d e91f d5bd 1eda 0d3e 5c88 1b3e
00000170: b847 8ebe f9c3 f7bd e7e1 733e 5643 66be
00000180: b8b7 5d3d 90f6 06be 488a b6bd 0ab1 273e
00000190: bba2 7a3d 079e 12be 25e5 833d 84e6 07be
000001a0: c7e6 5bbe bad2 8e3c 23df 21be 02f7 87be
000001b0: 95e2 a83e ff0d ac3d 97e6 9f3d 75af 4abe
000001c0: 0ef2 eebd 8fd5 2dbd c2e4 ad3d 9dcc 5abe
000001d0: fa65 d5bd 3a17 1cbe d7ec 29bd 2d45 83be
000001e0: 446d 06bd c2d5 59be 4754 77be c95a 28be
000001f0: 8765 b8bd 5239 6cbe 2858 4b3e 136c c5bd
00000200: fbf7 493e 1ac6 b73d 22d4 82be 93ef 243e
00000210: c2dd bebc 3651 8dbd af0a 7bbe bac7 2abe
00000220: 022d 5f3e b08c 583d ac35 413e e24b 16be
00000230: 6d9c 913e 5341 8bbe cb52 61be 051b 68be
00000240: b834 fc3d a6fa 683e 4256 9e3e 1ffa 3fbe
00000250: 9176 f63d 07a9 55bd 4bbb 483d ca78 03be
00000260: de6d c03e c4a0 8ebe 1948 003e 78fb 1d3e
00000270: b5c2 bc3d e8ac 02be 252c a73e ac3d 863d
00000280: 4eaa 693d f9d5 5dbe f1bc 333e 7e8f f63c
00000290: 30ab 23bd a22c 823e b63b 083e 3959 9cbc
000002a0: 2488 21be 3923 b5bc b2b9 493e 2fff 40bc
000002b0: a695 c8bd dcd8 66bc c58e 42be c4ee 073e
000002c0: 4c4d 8b3e 56e9 dcbe 1554 cfbd 74f2 c13d
000002d0: 7d0a ecbb ee59 13be 24d6 203e 4ea6 e53c
000002e0: 18e4 11bc 3b07 14be 4fa5 3abe 97b7 89bd
000002f0: c35d 00be d6cd ccbd a5ce 7e3e 7b22 e33e
-0.0732211 0.2802818 -0.013870592 0.015878221 -0.1736145 0.1530526 0.2541008 -0.20175265
0.27833557 -0.034926813 0.16775012 0.05667579 0.18235186 -0.006935881 0.20644335 0.11903417
-0.04983293 0.13564321 -0.053914227 0.052906297 -0.054314796 0.15944585 -0.3245797 -0.36627644
-0.109179854 -0.19029553 0.03240813 -0.3790786 0.17314918 -0.3219091 0.12898785 -0.038927
-0.16923632 0.20068644 0.118148334 0.3795644 0.041752923 -0.06323267 0.122060284 -0.10090099
0.10479491 0.24891631 0.19484977 -0.09155694 0.20967026 0.021978164 0.14208776 -0.15989408
-0.20920947 -0.05551995 -0.20809239 0.3090027 0.1474195 0.16362825 0.145894 0.040844467
0.2506838 -0.17821248 -0.032249432 -0.35540137 0.08548498 -0.089634724 0.11935917 -0.13278042
0.1679976 -0.23245198 -0.21481325 -0.21239646 0.23020174 0.15795779 0.39856178 -0.060900446
-0.30293554 -0.26013234 -0.2425015 0.14023998 0.11815087 0.24863474 -0.13353327 -0.18961123
0.154309 0.063130245 0.3503168 0.09930192 0.14017221 -0.27762374 -0.25023782 0.090822
0.053778354 -0.10406477 0.13852736 0.15188736 -0.27789092 -0.12097926 0.23816644 -0.22486624
0.054130286 -0.13179994 -0.08913094 0.16376129 0.061190348 -0.14318095 0.0644019 -0.13271528
-0.21474753 0.017434467 -0.15807776 -0.2655564 0.32985368 0.08401107 0.078076534 -0.19793494
-0.11667262 -0.042439993 0.08490898 -0.21367116 -0.10419841 -0.15243235 -0.041485634 -0.25638714
-0.032819048 -0.21272948 -0.24153243 -0.16440882 -0.0900374 -0.23068741 0.19857848 -0.09639754
0.19723503 0.08973332 -0.2555247 0.16107015 -0.023299102 -0.069002554 -0.24515794 -0.16677752
0.21794513 0.052868545 0.1886813 -0.14677384 0.28439656 -0.27198276 -0.2200424 -0.22666557
0.12314743 0.22751865 0.30925184 -0.18747757 0.120343335 -0.05216315 0.04900674 -0.12839046
0.37583822 -0.2785703 0.12527503 0.15427959 0.09216825 -0.12761271 0.32650867 0.06554732
0.05704718 -0.21663655 0.17552544 0.03009772 -0.03995818 0.25424677 0.13304028 -0.019085513
-0.1577459 -0.022111522 0.19699743 -0.0117795905 -0.09794168 -0.014089789 -0.18999775 0.13274676
0.2720741 -0.4314677 -0.10123459 0.094700724 -0.0072033987 -0.14389774 0.15706688 0.028033402
-0.008904479 -0.14455883 -0.18227123 -0.0672447 -0.12535767 -0.100001976 0.24883516 0.44362244

encoder.model.0.bias f4 [16]
00000000: cdc7 8cbe 95cd c33c 177e 64bd 0a83 8bbe
00000010: 76ec ef3d 054e bcbd 33eb c3bd b18f 0c3e
00000020: 1a57 bc3e 21ea 8e3e 0e40 543e 9d0b 7e3d
00000030: 0bc7 95be da45 b9be e016 f13c 573f 92bd
-0.27496186 0.02390174 -0.05578431 -0.27248412 0.11715023 -0.091945685 -0.09566345 0.13726689
0.36785203 0.27913 0.2072756 0.062022794 -0.2925342 -0.36186105 0.029429853 -0.07140987

encoder.model.4.weight f4 [32, 16, 3]
00000000: 1374 c23d 2ab4 bd3d 26f2 10be 065c 02be
00000010: f022 08be 270d ef3d 2e7e 433e de09 433e
00000020: 408d 123e 5478 91bd 8ab4 ddbd 1566 4b3d
00000030: 0c69 cebe c398 d9be 8c5d 95be f969 133e
00000040: 92dd 543e c971 903d f7e2 82ba 1bdf 86bb
00000050: 2045 32bc 6bec 043e 4111 ad3d 72fd 073e
00000060: ff42 24bc 0e5b 90bd b665 c13c 6347 0bbe
00000070: 78a0 50be b9f0 dfbd 26eb 623d dbe2 5cbd
00000080: f0e1 3e3d 100d b6bc ca86 353c d04b d3bc
00000090: c9c4 59bd f5fd a93d 3918 00bd f3e7 783e
000000a0: e6c8 103e 3542 89bc cf4a b23c f97a 88bd
000000b0: 0d7d 113d 2d65 e4bd 7585 1c3e 3c7a cdbd
000000c0: 67ff 043e 46d9 523e 2cac 153e 38c4 0ebe
000000d0: 6ae4 31bd fc1b 47be 49b1 973a f869 153e
000000e0: da87 0dbc a4c6 b43d c880 e93d 8e88 56bd
000000f0: 1a8c e13d 1a8f 1ebe 4fcc 8c3d 9933 e43d
00000100: dcd0 843e d5fe ae3c 0471 78bd bc5d 0f3e
00000110: 96bd 2c3e 2ef2 62be 9f01 14be fa24 30be
00000120: f3cc b039 cca0 f4bd 346b ffbc ff40 9ebd
00000130: 66c8 87be ece7 0d3d 8f1e fc3c fc67 17be
00000140: 3a99 30bd cb80 2cbe 04fe 9abe e14a 6abe
00000150: ec39 a03d a17a 9ebc 73a2 78bd 285b 61bd
00000160: e193 b83c 9a9e e2bc 2f67 0ebe df69 95be
00000170: 8ceb 50be 7a5a 7abd 022c 02bd c7aa f83d
00000180: 116f e2bc 8dee c23d d45f 7c3d 753a 363d
00000190: 25b3 ee3d 5b85 13be 0b45 0ebe 6622 853d
000001a0: 5336 813e 240e e93d 3988 3e3e 7f1e 623e
000001b0: 9586 13bb c128 d7bb d15a 5dbe 1899 41bd
000001c0: 6125 0b3e e687 213e 7e53 8fbd 2bf4 58bd
000001d0: a37b 093d 427e 1dbe 15dc 07be 36f0 29be
000001e0: de7e 8f3d 7cbe 36bc cf7b 6abe b3d9 f0bd
000001f0: b517 8d3c 7045 8fbe 2a57 63bd 5ebc 063d
00000200: 530d bdbd ca63 26bc 50a3 9ebc 6438 8bbd
00000210: 02b4 26bd cd17 c8bd a2ed baba 8fc9 62bd
00000220: d9e3 533e 6081 393d fc4c d4bd d3c7 dfbc
00000230: 60ce 383d 140f 333d 483d ce3d 5544 5b3e
00000240: bc89 e9bd 95f4 cd3d 5d51 7d3e 6bf4 ba3c
00000250: bfa9 39bd 95a5 ee3d eca2 5cbd d096 cabd
00000260: 1c10 17be acf4 2f3e 3c69 a53e 492f b93e
00000270: 45f1 933d d0c7 a3bd 6413 f8bd 51aa 6fbd
00000280: 43fd d83d 4baf a63d 4360 7dbd 4d2b 16bd
00000290: 19fd 24be cd18 d6bd 41f8 a5bd 513a 24be
000002a0: 6dc2 d03d edad 1dbe df97 473a b941 d4bd
000002b0: b08c e13c 2441 4b3d db5b 86bd 2a8f 06bd
000002c0: 2a6b bbbe fb97 3cbd bba1 893d bf8e 93bd
000002d0: b3b9 30bd e1b7 683c 47ca b43e b148 a83b
000002e0: e4ac 8c3d 63d3 df3c 261e bcbd 3797 04bc
000002f0: 61c0 743d eae3 c5bd a89f 8dbd 74be c93d
00000300: a896 063e c40b 403e 7489 033d 68bd 1ebe
00000310: 6f15 59be 4b70 71bd a418 a7bd 7366 863d
00000320: 169b d3bd 9e69 f23d 2dc4 c03e ef97 593e
00000330: 40a8 da3d 9301 e1bd 1ffa b0bc 7a02 e33d
00000340: db87 3f3d b6b8 92bd 9d2a 693d 213a 063d
00000350: e160 c3bd 8801 d1bc af5e dcbc 9386 b7bd
00000360: 9865 9fbd dba1 65be c93a 04bd 7553 84bd
00000370: 7608 afbd e556 0cbd c89c 39be 8930 c3bd
00000380: 0cf6 51be eb80 acbc f82e 49be 2e0e 1bbd
00000390: ab9f cd3c a555 e63d 1b1b de3c 29a5 ee3d
000003a0: 1800 ee3d 9cc6 0b3e 4b02 c23a d97a 8bbe
000003b0: b524 2bbe 8b3e 073e c149 2c3e 8c6a 20be
000003c0: 8dd9 2ebd 64d7 f7bd 003b 6f3c a9ff ee3d
000003d0: e8b5 353d 9e6b 9ebe 8da2 14be ce2b f63d
000003e0: f262 933e 4eb2 f0bd f50a 8bbc 434b bf3c
000003f0: 3adf e63d dad1 07be 805b 5ebe 5b60 12be
0.09494796 0.09262879 -0.14154872 -0.12730417 -0.13294578 0.116724305 0.19091102 0.19046733
0.14311695 -0.07103029 -0.10825451 0.0496579 -0.4031452 -0.4249936 -0.29172933 0.14395894
0.20787647 0.07052953 -0.0009985854 -0.0041159517 -0.0108807385 0.12980811 0.084505565 0.13280275
-0.010025739 -0.07048617 0.02360807 -0.1360145 -0.20373714 -0.10934586 0.055400036 -0.053927284
0.04660219 -0.022223026 0.0110794995 -0.025792986 -0.053166185 0.083003916 -0.0312731 0.24307232
0.14139137 -0.016755203 0.021764187 -0.0666408 0.03551965 -0.1115211 0.15285285 -0.1003308
0.12988053 0.20590696 0.1461646 -0.13942039 -0.043430723 -0.19444269 0.0011573221 0.14591205
-0.008638347 0.0882695 0.11401516 -0.052376322 0.110130504 -0.15484276 0.06874906 0.11142654
0.25940597 0.021361748 -0.060654655 0.140006 0.16869196 -0.22162697 -0.14453743 -0.17201605
0.00033722035 -0.11944732 -0.031179048 -0.07727241 -0.2652008 0.034645006 0.03077629 -0.1478576
-0.04311488 -0.16846006 -0.30271924 -0.22880127 0.07823548 -0.019345583 -0.0607018 -0.055018574
0.022531452 -0.027663518 -0.13906549 -0.29182336 -0.20402354 -0.06112144 -0.03178025 0.12141948
-0.027640851 0.09518156 0.061614826 0.044489343 0.11655263 -0.1440634 -0.13893525 0.065007016
0.2523676 0.1137965 0.18606652 0.22081946 -0.0022510637 -0.0065661375 -0.21616675 -0.047265142
0.13588478 0.15774497 -0.06998347 -0.05296723 0.033565175 -0.15380195 -0.13267548 -0.1659554
0.0700662 -0.011153813 -0.22898792 -0.11760273 0.017223218 -0.27982664 -0.055503048 0.032894485
-0.09231057 -0.0101556275 -0.019364983 -0.06797865 -0.040699013 -0.09770165 -0.0014261494 -0.055368003
0.20692386 0.045289397 -0.10366246 -0.027316963 0.04511869 0.04371555 0.10070282 0.21412785
-0.11403224 0.10056416 0.24738069 0.022821626 -0.045327898 0.11652676 -0.053866312 -0.098920465
-0.14752239 0.17183179 0.3230685 0.36168888 0.07223753 -0.079970956 -0.121130735 -0.058512036
0.10595181 0.08138903 -0.06185938 -0.03666239 -0.16112174 -0.10453949 -0.08103991 -0.16037871
0.10193334 -0.15398379 0.0007613878 -0.10364098 0.027532905 0.04962267 -0.06560489 -0.032851376
-0.36605197 -0.046043377 0.06720301 -0.07204961 -0.043145847 0.014203996 0.35310575 0.0051356186
0.06868914 0.027322477 -0.09185438 -0.008092693 0.05975378 -0.09662612 -0.06915218 0.09850779
0.13143408 0.18754488 0.032113507 -0.1550194 -0.21199583 -0.05894498 -0.08158997 0.065625094
-0.10332315 0.11836551 0.3764967 0.21249364 0.106766224 -0.109866284 -0.021603642 0.11084457
0.04676042 -0.07164137 0.056925405 0.03277028 -0.095399626 -0.025513425 -0.026900617 -0.08961215
-0.07783049 -0.22425024 -0.032282624 -0.06461231 -0.08546536 -0.034262557 -0.18126214 -0.09530742
-0.20504016 -0.021057567 -0.19646823 -0.03785532 0.02510055 0.11246804 0.027112534 0.116525955
0.11621112 0.13649982 0.0014801709 -0.27242163 -0.16713221 0.13207452 0.1682501 -0.15665644
-0.04268794 -0.121016294 0.014601469 0.11669857 0.044362932 -0.3094148 -0.14515133 0.12020074
0.28786427 -0.11752759 -0.016972998 0.023351317 0.11273046 -0.13263646 -0.21714592 -0.14294569

encoder.model.4.bias f4 [32]
00000000: e1e7 d0bd 45fd 1b3e 2297 88bd d2eb debc
00000010: 8d91 ec3d 1548 863d a383 94bb 0cf4 ddb8
00000020: 9564 6a3c 4cdd 9e3c 8e56 8d3d fdff 04be
00000030: f835 e33d f547 793e 14f1 bdbb feba a93c
00000040: d5f5 1ebe 49bb c0bd ebc6 e4bd d5b7 a9bc
00000050: a804 e3bd 2251 a33d 5477 1fbb 1b95 23bc
00000060: dd5e 2d3d df7e 75bd 583b 04bd 5e0c 4cbd
00000070: 8731 fc3d 6579 473d 8f3b 3c3d 0a3d 0ebe
-0.102004774 0.15233333 -0.06669451 -0.027212057 0.11551199 0.06556717 -0.004532294 -0.000105835585
0.014306207 0.019392632 0.069012746 -0.12988277 0.11094278 0.24343856 -0.005796561 0.020719048
-0.15523465 -0.09410722 -0.11170753 -0.02071754 -0.110848725 0.07974459 -0.00243326 -0.00998428
0.042326797 -0.059935447 -0.032283157 -0.04981648 0.12314134 0.048699755 0.045955237 -0.13890472

encoder.model.8.weight f4 [64, 32, 3]
00000000: 3da5 cbbc c031 6ebd 1c16 f23d 4595 8d3b
00000010: c8e3 62bd 76df 1cbd 5a1d 5c3d 3e10 27bd
00000020: 7d9c c8bd 5f56 483e 7e71 62bd 8229 abbe
00000030: 8338 85bb 5948 3abd 5556 f7bd 7155 3f3e
00000040: a5a5 e8bd 229f 08be 6c1e 67be 2361 a43d
00000050: f833 233f 22b2 433d 872f 0e3c 3789 63be
00000060: 8373 803c 7271 193d bf08 f0bc 67e9 25bd
00000070: 8d68 60bc b31f 9e3c 1056 cfbd 444a ea3d
00000080: a7a1 993e f6c8 473d 1f59 d2bd 832f fc3c
00000090: 4b20 01be 41e3 2e3e 5aed 933d 7ad5 04bd
000000a0: 4ca7 163b 6ec9 4a3c 5f91 5abe 90be c03c
000000b0: a923 a93e 2e52 36bd 722c 45bd d3ef 063e
000000c0: 7e76 9f3d 40a8 3d3c 410c 72bd f7f5 103e
000000d0: 6c4d 9f3c 6fe5 28be 0de0 003c 5d31 20bd
000000e0: a4c9 803d 6e9d 68be 26d2 6a3e 336e cf3e
000000f0: c4e6 7f3d 9fde 8cbd 7284 ea3c a961 313c
00000100: d10f 4b3d 6cea e0bd fb98 1fbe 791f 1b3e
00000110: 5dd1 d93d 9536 973e 6ad7 08be e041 31bf
00000120: 5e4f ac3c d0cb d7bd 97ef 013e 7af2 77be
00000130: a9c7 cc3e 73fb 083f e8ea 82be 5049 92bc
00000140: 39e2 f33e a024 033e 2841 8c3d f42b 65be
00000150: 35c8 e43c 7ebf 843d 4690 d3bd 9f63 41bd
00000160: 4a51 bb3d 97d1 843d 7b45 8a3d 5288 483d
00000170: 0db2 413c dee4 8c3d 4342 92bd e155 c63d
00000180: 0dca aabc 53a0 54bc 4a96 cbbb d98c 233d
00000190: 973e 9eb8 f0f5 e23a b70c dabd ea0a ddbc
000001a0: 6cfc 393e 8106 43ba 7a7e 053e 6dc9 8f3d
000001b0: 3b20 0bbd 0635 78bc ce92 b83d 30f6 e8bd
000001c0: 4ddf e23c 6203 b73d 36fe 82bc 0277 63be
000001d0: 4560 f2bd 8071 bbbd d500 e73d af8a 783d
000001e0: 1b77 c63d 2f65 52bd 9f18 393d bc70 dfbc
000001f0: 2a70 193d 8f88 38bd a8af 423e 1657 7fbd
00000200: 02e8 acbd 47df aabc 38b9 1dbd f7ab 1d3e
00000210: ac32 113c 9f8a 66bd 840b 29bd 64d3 b2bd
00000220: 38ea 89bd 2ee7 d3bd 08db 533d 87a2 3ebe
00000230: 463d 95bd 0490 86bd c178 2dbe f983 17be
00000240: 6584 80bc be4b 2f3d 63ce 243e 78da 44bd
00000250: 3bdc f83d c72e dc3d 8438 383d 797b 003e
00000260: 4d9e d3bd d093 143e ea1b 07be 9ba7 0b3e
00000270: 7584 16bd 1f8c a9bd b24e 393e 9d9f 9bbd
00000280: 5388 4b3d f481 d3ba 932f e93d 92e8 fa3c
00000290: 8b7b 193e ae8c d1bd 8aae ef3d fc10 e43d
000002a0: aa80 53bd 6036 08be 0951 be3d af77 a63d
000002b0: abf0 d2bd f937 1a3e 926d 433d df8a fabd
000002c0: e6fd 21be e5a2 093c 73f5 b4bc 7d88 b93d
000002d0: ff12 213d 1c0a 20bc 0cc2 853c aa09 803d
000002e0: 8d05 1abc 0ae5 fbbd 35ec 67bd 39eb 1bbd
000002f0: 7d66 f7bd f26f 713d 1650 3bbd 5ca1 033e
00000300: a120 a43c a1c1 383d a07d 89bd 4815 87bd
00000310: 6c9d 5f39 893d 153d 9176 1fbd 4cc6 a33c
00000320: 5e21 c33c b1ee 973d 5915 5bbe d552 b5bd
00000330: ca86 843d 72d1 8b3b 7a0c 1c3c a38c f43b
00000340: 7735 013c 0653 89bd 0f2e 3ebe cd16 b83c
00000350: baef 023d 2aa1 163d 1b56 0ebe 96aa c4bd
00000360: 8c0c d4bd ee49 e1bd a796 7bbb 6166 bc3d
00000370: 7766 e4bd a5ba 703c 74e2 f5bd e03b 99bd
00000380: b89e 043e aa7f 2bbc 943d 8f3d 9025 8ebd
00000390: c407 01bd 86ce 35bd c962 613d 1b54 10bd
000003a0: ecf2 c7bb d1b2 64bc 88a3 ecbd 4348 7c3e
000003b0: 72a4 d63d 8532 5abe 41d9 633e 73a9 dfbd
000003c0: a8f9 27bc bd4c 0dbe 6c61 8a3c 80de 293c
000003d0: cc45 94bd 4cd6 cbbd 9872 ba3d 1780 9b3b
000003e0: 6efb 82bd 5848 04be 2456 76bd 8014 853e
000003f0: e892 083d ef27 ae3d 24ab 84bd 3724 5cbd
-0.024859065 -0.058152914 0.11820623 0.004320773 -0.05539301 -0.038299046 0.05373893 -0.040786974
-0.09795473 0.19564198 -0.055284016 -0.33430105 -0.0040655746 -0.045479152 -0.120770134 0.18684937
-0.11359719 -0.13341954 -0.22570199 0.0802634 0.63751173 0.047777303 0.008678324 -0.22220312
0.01568008 0.037461706 -0.029301045 -0.040505793 -0.013696802 0.019302225 -0.10123837 0.11439946
0.30006143 0.048775636 -0.10270905 0.030784374 -0.12609975 0.17078878 0.072230056 -0.03243015
0.00229879 0.012377126 -0.21344517 0.023528367 0.3303502 -0.044511966 -0.04813809 0.13177423
0.077862725 0.011575758 -0.059093717 0.14156328 0.019446097 -0.16493772 0.007865918 -0.039109576
0.0628846 -0.22716305 0.22931728 0.40513763 0.062475935 -0.06878399 0.028627608 0.010826507
0.04957563 -0.109822124 -0.15585701 0.15148725 0.10635636 0.2953383 -0.13363424 -0.6924114
0.021033939 -0.10536921 0.12689053 -0.24213591 0.3999608 0.5350868 -0.25569844 -0.017857224
0.47633532 0.1280694 0.06848365 -0.22380048 0.027927497 0.06481837 -0.10330252 -0.047214147
0.09146364 0.064852886 0.067515336 0.04895813 0.011822236 0.068795905 -0.07141545 0.09684349
-0.020848298 -0.012977677 -0.006212984 0.039929245 -7.5456854e-05 0.0017315727 -0.106469564 -0.026982743
0.18162698 -0.0007439629 0.13036528 0.07020841 -0.033966284 -0.0151493605 0.09012376 -0.113750815
0.027694369 0.08936192 -0.015990358 -0.22213367 -0.11834768 -0.09152508 0.112794556 0.060679134
0.09690686 -0.051366027 0.045189496 -0.027275436 0.037460484 -0.045052107 0.1901232 -0.06233891
-0.084426895 -0.02085842 -0.038506716 0.1539763 0.008862179 -0.056284543 -0.041270748 -0.08731726
-0.06734127 -0.103468284 0.051722556 -0.18616687 -0.072870776 -0.065704376 -0.16940595 -0.14796437
-0.01568813 0.042796843 0.16094355 -0.04805991 0.12151381 0.107511096 0.044975773 0.12547101
-0.10332928 0.14509511 -0.13194242 0.13638155 -0.036747415 -0.08278679 0.18096426 -0.07598803
0.049690556 -0.0016136752 0.11386027 0.030628476 0.14988534 -0.10231911 0.117032126 0.11136052
-0.051636375 -0.13301992 0.092928 0.081282966 -0.1029981 0.15060414 0.047711916 -0.12233519
-0.15819511 0.0084006535 -0.022089696 0.09059236 0.039324757 -0.009768035 0.01632788 0.06251843
-0.0094007375 -0.12299545 -0.05662175 -0.038066123 -0.12080095 0.05894465 -0.045730673 0.12854522
0.02003509 0.045106534 -0.06713414 -0.06595856 0.00021325581 0.036435638 -0.038931433 0.019992016
0.023819622 0.07418574 -0.21394862 -0.088536896 0.064710215 0.004266911 0.009524459 0.0074630543
0.007886282 -0.067052886 -0.18572257 0.02247181 0.031966902 0.03677479 -0.13900034 -0.09602849
-0.103539556 -0.11000429 -0.0038389356 0.09199215 -0.11152356 0.014692937 -0.12006083 -0.074821234
0.12951171 -0.010467449 0.06994167 -0.06940758 -0.031501547 -0.04438641 0.05502585 -0.03523646
-0.0061019566 -0.013958649 -0.115546286 0.2463694 0.10480584 -0.21308334 0.22250845 -0.10920992
-0.010252394 -0.13798805 0.016892157 0.01036799 -0.07239875 -0.09952983 0.09103888 0.004745494
-0.06395613 -0.12918222 -0.060140744 0.25992203 0.033343226 0.085037105 -0.06477955 -0.053745475

encoder.model.8.bias f4 [64]
00000000: 4733 da3c 23cb 0fbd 28bc 91bd 28c2 10be
00000010: 51b4 ccbd 520f 03bc 73d5 413d c215 93bd
00000020: 9713 06bc ca2a bfbd 1b19 2fbd 43d9 82bd
00000030: 56ca 62bc 5bb0 b4bc d7b9 9bbd 4a45 0abd
00000040: 6862 913d 49ab 943d 346f c0bd 4c72 c53c
00000050: b619 23bd 7fc0 8cbc a4f6 2db9 81f6 fcbd
00000060: 7594 56bd 5d31 aebb dc7f 333c 3a0a 01be
00000070: 414b 11bd 88bb 64bd 9ef1 f73b 04a0 89bc
00000080: 4396 c8bc 4280 9abd 7661 b3bc 4340 bdbc
00000090: a172 4bbe 9be3 1cbe 6afe a5bd 5ad7 d53c
000000a0: 4dfd cabd f88b 4c3d 7315 2e3d 68c9 17bd
000000b0: d6ea 003d 291f bcbd ff34 c0bd 39d0 c3bd
000000c0: b20c 00be b510 11be 8a79 b3bd 5b57 c6bd
000000d0: c9eb 06bd 1035 083d 63dc cebb c808 cebd
000000e0: 30e2 b0ba 5946 9cbc 9271 19be 124d b8bc
000000f0: 5f12 03be 77a0 633d 3440 efbc b484 c5bd
0.026635779 -0.035105836 -0.07115966 -0.14136565 -0.0999533 -0.007999258 0.0473227 -0.07181884
-0.0081833815 -0.09334333 -0.04274855 -0.06389096 -0.013842186 -0.02205675 -0.076038055 -0.033757485
0.07098848 0.072592326 -0.0939621 0.024102353 -0.03981944 -0.017181633 -0.00016590446 -0.123517044
-0.052387673 -0.005315943 0.010955777 -0.12601557 -0.03547216 -0.055842906 0.007566645 -0.016799934
-0.024485713 -0.075439945 -0.021897059 -0.023101931 -0.19867946 -0.153212 -0.08105166 0.026103664
-0.099115945 0.049938172 0.042500924 -0.03705731 0.031473957 -0.09185631 -0.09385108 -0.095612
-0.12504843 -0.1416653 -0.08763416 -0.096846305 -0.032939706 0.03325373 -0.0063128932 -0.10060269
-0.0013495144 -0.019076513 -0.1498473 -0.022497687 -0.12799977 0.055572953 -0.02920542 -0.09644452

encoder.model.13.weight f4 [32, 128]
00000000: 7f43 11bd 430d 2ebe 0e3e 2bbd f302 e1bc
00000010: 5682 993c 82cd ff3d 0be9 a73d c8c6 efbd
00000020: b53c 0ebe 001d 88bd 14b7 013d 9552 3dbe
00000030: 4a5a 6cbc 8cd4 d3bd 22a3 103c 7793 8abe
00000040: ad86 8fbd 0960 93bd 6ed2 0fbd 0f1d babb
00000050: ece2 f1bc c925 16be 5c95 7cbd 4b62 79bc
00000060: cb92 ee3d 015a 1c3c e5d9 edbc 5709 20bd
00000070: cae8 3ebd d61a dcbd ad72 aa3c d5a0 173e
00000080: 7fc2 a13c f40b c1bd 08a0 4c3c c749 71bd
00000090: b273 573c b4d8 1bbc 7df7 afbc 3366 b2bd
000000a0: eabb 093b ddd9 78be a154 84bd 09ca 123e
000000b0: e6e8 dd3b 2975 8ebe e9d4 a03d 67b0 f0bc
000000c0: 1187 2ebe ed24 8abd 47b2 04be 8ef2 ebbd
000000d0: 4988 513d 7927 64bc f693 ad3d ab73 d63d
000000e0: a81d 8d3d 7624 6dbc 0d9a a3bd a446 e9bd
000000f0: dbe0 45bd cffb b5bd d411 983d 0395 7fbc
00000100: 8178 b5bd de0b 00be 5e20 b8bc affe a33d
00000110: 9db0 bebd 104e b8bd 5d57 4ebc c7f7 1a3e
00000120: 40d9 703d a5c6 1c3e 0d84 dfbb 9bd3 113e
00000130: eb69 a13b 9703 ecbd 1dea fc3c 7fa8 283d
00000140: b24f a93c fef3 9a3e 136e 88bd 45ab 0fbe
00000150: 4205 9ebd 2fd4 4bbe 2aef a8bd ec51 91bd
00000160: ea80 ab3d 1f7b 403b 2f4b aabd 1647 7bbd
00000170: d7df 8d3d dca5 0e3e 37ed 213c 2187 ebbd
00000180: 2030 8abd 7e57 a6bc 44eb debd 5e59 6fbd
00000190: 2130 853d 3025 223e 4980 99bd 071c ccbd
000001a0: f06e 2cb9 cc77 68be b14c 57bb 63a9 98bd
000001b0: 54c6 803d 0cb1 06bd ec77 993d 8f70 613d
000001c0: 9468 4ebd d84e 21be e5a7 d73c bdb3 48bc
000001d0: 2da8 75bc 5191 85bb 63ed 6bbd c171 e9bd
000001e0: 45f8 3a3d 5267 873e 2a9e c23d 59e9 733c
000001f0: f61f 1cbd d65e 893b e303 a23d cbec 083e
00000200: fa74 233c b15b 233e 99ab b93d 11ad 1bbe
00000210: 9aa7 73bb 866d f33d 771a 1abd ca66 f73d
00000220: be03 8bbb 5da1 a93d 697c 803d 254a 373e
00000230: f1d0 403d 7d92 bfbd 6a67 833d 9096 413e
00000240: 9699 babb 4003 99bd 7e44 a4bb 3cbb 773d
00000250: 02f5 f83d 3919 29bd eeba b93d 6fce ea3d
00000260: 3c36 8f3d ae5a 4b3c 96e6 e53c 0eb3 e63d
00000270: 6e99 5f3b f8b5 593d e9a6 02be afb1 d83d
00000280: b645 143d 3644 61be 3668 153d b0d1 15be
00000290: daf7 0cbd 8017 533d f084 833d 83cc 98bd
000002a0: f7c3 493d 3f7a 2f3e 9172 bc3d a3d5 c6bc
000002b0: 7e67 d23d 5e74 553e e8f8 1ebc f086 063e
000002c0: 6797 473d f1f7 263e 1d0c bbbd 9049 d2bc
000002d0: e4c9 85bc 67c0 b63c 45d7 113e ccce bd3c
000002e0: 790a 84bc 4537 5a3b 562c 443c 4ac5 b13c
000002f0: bbc9 4bba ce57 3f3b eaf4 faba 7864 863c
00000300: 303b 743d b3d0 9c3c 0c1e 1e3e 17b1 c23c
00000310: 975b 093d e849 b93d 549c ea3d 9bc5 833b
00000320: 0d7a 153e 897e 973d ff0c 213e 7e60 e43c
00000330: 2bee 07bd 203f eebc 4145 f83b 7cae 25bd
00000340: 893f a03d 3825 dd3d b6d0 74bd 31de c6bb
00000350: 3eac 7ebd b827 82bd a19d edbb 8157 043d
00000360: d761 6abc d369 9eba bec7 1f3c 4f43 853d
00000370: 418b 0b3e 3c07 16bd 9bf1 b23d 94dd c5bd
00000380: 3fa4 573c ea60 0abd be2d e2bd b7ae 033e
00000390: eb30 813d 9fd7 a13c 2ea4 ff3c 5b2a 953d
000003a0: a137 753d f81b 2f3e c2cb 083d 716f 24bd
000003b0: 4050 f63c 1531 dc3c 602d 7f3d faed 153e
000003c0: 2e4b e8bc 94c8 613d 3607 7b3e 0866 d3bd
000003d0: aa1a 033d d415 ec3d 29a4 303c 3342 5b3d
000003e0: 12aa 5c3b 29f8 ff3b 3a8f 273e d6eb 1cbd
000003f0: 6524 003e 2ee0 3e3d 3ef1 a83d 9ebb 543d
-0.03546476 -0.16997246 -0.041807227 -0.027467227 0.018738907 0.124903694 0.08198746 -0.117078364
-0.13890345 -0.06646156 0.031668738 -0.18488534 -0.014425823 -0.103432745 0.008827956 -0.27065632
-0.07008109 -0.071960516 -0.03511279 -0.0056797336 -0.02952715 -0.14662851 -0.061665878 -0.015221189
0.11649092 0.009542943 -0.029034564 -0.039071407 -0.046608724 -0.10747306 0.020806635 0.14807446
0.019746063 -0.09426108 0.012489326 -0.05890825 0.0131501425 -0.009512115 -0.021480316 -0.08710899
0.0021016547 -0.24301858 -0.06461454 0.14334883 0.0067721484 -0.2782376 0.078531094 -0.02938099
-0.17043711 -0.06745324 -0.12958632 -0.11520873 0.051155362 -0.013925427 0.08475487 0.10471281
0.06890422 -0.014474025 -0.07988367 -0.11390427 -0.048310142 -0.08885919 0.074252754 -0.015599492
-0.08860875 -0.12504527 -0.022476371 0.080075614 -0.0931103 -0.08999264 -0.012594071 0.15133582
0.058800936 0.15310152 -0.0068211616 0.14240877 0.0049259565 -0.11524122 0.030873353 0.041176315
0.020667884 0.30264276 -0.0666162 -0.14030178 -0.077158466 -0.1990516 -0.08248742 -0.070957035
0.08374198 0.002937026 -0.083151214 -0.06134709 0.0692746 0.13930458 0.009883217 -0.11500383
-0.0674746 -0.020305391 -0.10884717 -0.058434837 0.065033205 0.15834498 -0.074951716 -0.09966283
-0.00016444526 -0.22701949 -0.0032852108 -0.07454183 0.06287828 -0.03288369 0.074935764 0.055038985
-0.050392702 -0.15752733 0.026325176 -0.012249884 -0.0149937095 -0.004076161 -0.057599436 -0.1139865
0.045646925 0.26446015 0.09502824 0.014887177 -0.038116418 0.0041922135 0.079108976 0.1337158
0.00997662 0.15952946 0.09065933 -0.15202738 -0.0037178756 0.11886124 -0.037622895 0.12080152
-0.0042423895 0.08282731 0.06273729 0.17899378 0.047074262 -0.09354112 0.06416209 0.18905091
-0.0056945784 -0.07471323 -0.0050130477 0.060481295 0.121561065 -0.04128382 0.09068857 0.11465155
0.06992766 0.012411756 0.028064054 0.11264621 0.003411855 0.053152055 -0.12758984 0.105807655
0.036199294 -0.21998677 0.036476336 -0.1463077 -0.034416057 0.051536083 0.0642184 -0.074608825
0.049259152 0.17136477 0.09201539 -0.024271792 0.10273646 0.20845172 -0.009702899 0.13137412
0.048728373 0.1630552 -0.0913317 -0.025669843 -0.01633162 0.022308541 0.14242275 0.023169897
-0.016118275 0.0033297103 0.011973461 0.02170052 -0.00077738956 0.0029196623 -0.0019146476 0.01640533
0.059626758 0.019142484 0.1544115 0.023766084 0.033534613 0.090472996 0.114555985 0.004021359
0.1459734 0.073971815 0.15727614 0.027878042 -0.03318612 -0.029082835 0.007576615 -0.040449604
0.07824618 0.107981145 -0.059769355 -0.0060689677 -0.06217598 -0.06355232 -0.007251457 0.032310013
-0.014305553 -0.0012085981 0.009752212 0.06506979 0.1362734 -0.036627993 0.08737489 -0.09661403
0.013161718 -0.03378383 -0.11043881 0.12859617 0.063081585 0.019756136 0.031206217 0.07283469
0.059867505 0.17100513 0.033397444 -0.04014534 0.030067563 0.026878873 0.062299132 0.14641562
-0.028356161 0.055122927 0.2451447 -0.10322195 0.03200785 0.11527601 0.010781326 0.05352993
0.0033670706 0.0078115654 0.1636323 -0.03831085 0.12513883 0.046600513 0.08249138 0.05193674

encoder.model.13.bias f4 [32]
00000000: 5446 6ebe 1680 afbe a640 66be 27e2 97be
00000010: 6078 a7be 20a8 97bd 7a87 85be b092 b9be
00000020: 198a bcbe f1d2 41be 6cbe a8be 9f8d 69be
00000030: 3bb3 d8bd 4445 ccbd 0bd2 8fbe 77d7 8abe
00000040: df5b 493e d051 763e bd65 98bd 379d b23e
00000050: 6e52 eabe fb3e a43e 1de3 133e 9364 f7bd
00000060: 38fd 9a3e 7f0d 9c3e 5509 0ebe 43c7 a73e
00000070: 380d 1cbd 9e3c b8be 84ab 8bbe 5f9d 213e
-0.23269016 -0.3427741 -0.22485599 -0.29664728 -0.32709026 -0.07405114 -0.26079923 -0.36244726
-0.3682411 -0.18928124 -0.3295778 -0.2280793 -0.105810605 -0.09974149 -0.28089938 -0.27117512
0.19663952 0.24054646 -0.0744128 0.3488557 -0.45766014 0.320793 0.14442106 -0.1207973
0.30271316 0.30479047 -0.13870747 0.32769212 -0.038098544 -0.35983747 -0.27279294 0.15782689

decoder.model.0.weight f4 [1024, 32]
00000000: 62fe df3d 5d0a 533e f57c 503e 0386 4d3d
00000010: a29e a53e 3a31 d73d 6eb5 ecbd 38ea d33d
00000020: 7cf9 e23d 8f65 953d af5f ea3e 7946 343e
00000030: a92f 4e3d 8fd6 bb3e 355e 66bc 67a9 823e
00000040: d1fa 91be a3a0 2e3e 3f70 1a3e 68a3 27be
00000050: 64dc a63e cb80 253c f2da 313b 27fa 033e
00000060: a22c a1be c405 9dbc 1dd2 a0bc c667 7cbe
00000070: 592b e8bd 8da1 943d 0c6f e03d 5550 bbbc
00000080: cf9e e5bc b58d dabc 83a0 083d 5519 893d
00000090: 83e4 5abe 6d73 26bd 63ec 403e 900e fa3d
000000a0: dfb7 d9bd 4e04 c9bd 7cea 9dbe 2194 313e
000000b0: a8df d8bd 1837 1cbe 4c40 a83c a901 73be
000000c0: a047 4ebd bc49 b0be f11a b8bd 442b cabd
000000d0: c253 9ebe 5de1 87be fe64 3fbe 990b febd
000000e0: 8b3e efbd 873c ab3d b5d9 29be de15 b0bd
000000f0: ff62 f23d 762e 993d 185f 8b3c 0e93 1e3e
00000100: 7180 41bd 8a29 c23d 89a8 e7bd 0660 52bd
00000110: 3185 6dbc 31cf eabd 01f6 d83d 9c7a 25be
00000120: e642 97bd acb4 3d3e 98c5 b3bd 42b0 d73d
00000130: d871 ed3d 7ab3 06be 5dd5 49bd e58c 9cbd
00000140: 8511 c63c 5337 afbd 598f 16bd a098 f73d
00000150: 84ae 9f3d e80c ff3d 5c3b e9bd 9a66 5abe
00000160: d352 05be cbdb af3d fd70 973c 3dd2 57bd
00000170: 0323 133e 0677 23be 90ce 65bd 9116 bbbc
00000180: f49c 533d 6c84 013e 86a4 b2bd 9064 333e
00000190: 8093 493e 2aba e63d 83ae 963d 5cce 203e
000001a0: c973 b93c 8a10 783c 7fd3 fa3d 9a7b 03bd
000001b0: 371b d6bc 12e4 1ebe a914 34bd fbc2 153d
000001c0: 1b2c aebd 0563 bbbd 5a13 0dbe 8efb 54be
000001d0: 9822 d23d b4a3 0cbe d219 dd3c f294 0bbe
000001e0: 7891 19be 6477 eb3d f08d 543d ff23 9f3b
000001f0: 5e98 23be d23b bebd 7f93 aebd 6b6a c23d
00000200: 9bea 27be 5f3e 7bbd 7ffe 16be 5365 d9bd
00000210: dafa b23d 9783 abbd 63f4 6aba f454 a73c
00000220: 2766 0dbd 265d 793c b8ab 5abc b49c 82bd
00000230: 0a7c 3b3d 72ce 3cbd 962c b53d 8481 23bc
00000240: 9fc5 2d3e ac2a ae3c c762 1dbe 8a6e 8cbd
00000250: bc0d 873d 198e dcbd 8a6d 09be 3d46 063e
00000260: 17a2 963c e913 9f3b de1c ecbd c3c7 873d
00000270: 3d6a 4fbd 2571 76bc 2d0c b2bd 9fd7 39be
00000280: 7a55 053e 84a8 c23b c07b 45be 61e3 9bbd
00000290: b2df bebd 32a9 d0bd f699 963d 80cb f13c
000002a0: 5c99 b2bb 2c77 72bd 57dd f73d a5d5 933d
000002b0: ecc9 37be 51ab 85be 0da2 27bc 75e7 703a
000002c0: e408 c2bd 5eb2 49be f7d2 3abe 45e6 1cbe
000002d0: a003 3a3e e654 96bc 4f3a 66be 796f 08bc
000002e0: e907 61be db2c 703e a669 53be e567 67be
000002f0: 661f 60bd c269 2c3d bf10 4c3e 0fff acbb
00000300: 2372 1bbe ed90 afbc ec9c d93d cace 41be
00000310: d5fb 80bd 5a80 073e 028e e63b 6286 063e
00000320: e3ee edbd a790 f83d f28a f43d 2c84 3eba
00000330: c812 1dbe 5377 40be 79e9 e53c 4b92 98bd
00000340: 031e 32be ea99 75be 8514 633d ea5a d53d
00000350: 7413 a0bd 4d02 74bd 0031 1fbe f6f7 d03d
00000360: 48d9 12be d23a 5dbd 4fd0 13be fc0e 01bd
00000370: e48f 23bc 9d5e a9bd 89de c1bd 8fcf 69bd
00000380: 0919 44bd e657 75b8 f35f b93d d5ad dc3d
00000390: e809 99bc 871f 27bd 66a1 293e b481 ea3d
000003a0: 92c5 71bd dfd2 83bc 3397 18be d7e7 db3d
000003b0: 4449 023e 2954 343d f52e be3d 3d86 b43d
000003c0: 3b22 da3d aba5 1cbd ccc9 b73c ef16 2f3e
000003d0: d092 eeb9 e8b9 cabd 69ce 103e d29e 333e
000003e0: ec46 373d 2a23 4e3c 58fa 173e eba7 17be
000003f0: 8f1e 2bbd ee3d c23d 3f8c b13d 40c8 613d
0.109371915 0.20609422 0.20360167 0.05017663 0.3234759 0.10507436 -0.115580425 0.10347408
0.110827416 0.072947614 0.45776126 0.17605008 0.05033842 0.36687133 -0.014060547 0.2551987
-0.2851167 0.17053466 0.15081881 -0.16370928 0.3259002 0.010101507 0.0027138558 0.12888394
-0.31479365 -0.019167788 -0.01963144 -0.24648961 -0.11336393 0.07257376 0.109586805 -0.022865454
-0.028029827 -0.0266789 0.0333562 0.06694285 -0.21376233 -0.040637422 0.18840174 0.12209809
-0.10630774 -0.09815274 -0.3084296 0.17341663 -0.10589534 -0.15255392 0.020538472 -0.23731102
-0.050361276 -0.34431255 -0.08989514 -0.098715335 -0.30923277 -0.26539126 -0.18690869 -0.12404556
-0.11681851 0.08361154 -0.16586955 -0.08597921 0.11835288 0.07479565 0.017013118 0.15485784
-0.047241632 0.09480579 -0.113114424 -0.051361106 -0.014497087 -0.114653 0.105937965 -0.16160053
-0.07385807 0.18525952 -0.087779224 0.105316654 0.115939796 -0.13154402 -0.049275745 -0.07644061
0.024178276 -0.08555474 -0.0367578 0.12089658 0.07796958 0.124536335 -0.11388275 -0.21328202
-0.13019876 0.08586844 0.018486494 -0.052690733 0.14368825 -0.15963373 -0.056105196 -0.022837909
0.051663354 0.12648171 -0.087227866 0.1751883 0.19685173 0.11265977 0.07357504 0.1570372
0.022638218 0.015140662 0.12247371 -0.032100298 -0.026136024 -0.1551669 -0.043965016 0.0365629
-0.08504506 -0.09149746 -0.13776913 -0.20799085 0.102605045 -0.13734323 0.026989851 -0.13631037
-0.14996898 0.11497381 0.051893175 0.004856586 -0.15976092 -0.092887536 -0.085242264 0.09492954
-0.16398089 -0.06133878 -0.1474552 -0.10615029 0.087392524 -0.08374708 -0.0008962808 0.020426251
-0.03452125 0.015219962 -0.013346605 -0.06377545 0.04577259 -0.04609532 0.08846395 -0.009979609
0.16969918 0.021260582 -0.15369712 -0.06857021 0.065944165 -0.107692905 -0.13420692 0.13112731
0.018387837 0.0048546684 -0.115289435 0.066298984 -0.050638426 -0.015041624 -0.086937286 -0.18148659
0.13020888 0.005940499 -0.19285488 -0.076117285 -0.0932001 -0.101885214 0.073535845 0.029515982
-0.005450411 -0.059195682 0.12102764 0.07218484 -0.17948121 -0.26107267 -0.010231507 0.0009189763
-0.09474352 -0.19696948 -0.18244539 -0.15322216 0.18165445 -0.01835103 -0.2248318 -0.008327358
-0.21975674 0.23454611 -0.2064577 -0.22598226 -0.054717444 0.042093046 0.19928263 -0.005279429
-0.15180258 -0.02143141 0.106256336 -0.1892654 -0.06298033 0.13232556 0.0070359716 0.131372
-0.1161783 0.12136965 0.11940564 -0.000726762 -0.15339196 -0.18795519 0.02806543 -0.07449778
-0.17394261 -0.23984495 0.05543949 0.10417731 -0.078162104 -0.059572507 -0.15546036 0.10203545
-0.14340699 -0.054011174 -0.14434932 -0.03150843 -0.009983037 -0.08269999 -0.09466273 -0.05708271
-0.047875438 -5.8494414e-05 0.09051504 0.10775343 -0.018681481 -0.04080155 0.16565475 0.1145052
-0.05902631 -0.016091762 -0.14901428 0.10737579 0.12723261 0.044025574 0.092863 0.088146664
0.1065106 -0.03824393 0.022435091 0.17098592 -0.0004550428 -0.0989874 0.14141239 0.17541054
0.04474537 0.012581626 0.14841592 -0.1481015 -0.04177719 0.094844684 0.08669328 0.055122614

decoder.model.0.bias f4 [1024]
00000000: 4c6a 00bf 909b 16be 80e0 743e cbd4 f8bd
00000010: e54c 85be b17f 2ebe 87da 16be 248a 35be
00000020: 4e35 0dbe fbd1 48bd 19ac 5b3c 3c97 d03d
00000030: 1f26 27be c121 943c 359b 56be f5e0 53bd
00000040: 41d9 983d 2504 b4bd 159a 113d feda d9bd
00000050: e1da d1bd 06dd 89bb 62b3 febd 3688 46bd
00000060: bf10 58be 1f6d 613c ad39 963b 3d3c 58bd
00000070: eb66 923c ceca 87bd 3614 73bc 132f e1be
00000080: 729f 7f3d 275c ef3d 4bf1 13be 20b2 0d3e
00000090: ffbd b53c f05a 363e 3de5 553c 66ce 69bd
000000a0: 34de e5bd 2122 13be 6b8d d1bd d09e ba3d
000000b0: 24c7 8cbd a822 533e 4a83 d43d 1ff3 2fbe
000000c0: 2437 8f3d 2c89 2fbe 2569 283e 3b00 f73d
000000d0: c8bd 0ebe 5a74 8dbd 4bcd 1b3e 30bb 53bc
000000e0: b82d 203e 4807 3dbe 1b3e f63d fcd7 49be
000000f0: 2ccd 263e 0e6b 123e c5d5 ab3d a41d 963e
00000100: 6b44 4d3e 724f b8be 9eda 923c 976b 1ebe
00000110: 056a 9c3d 04ed 8ebd 7ed8 29be 57de 18be
00000120: 9901 c3bd dcac 62bd 11fc 62bd bdfb 5abe
00000130: 7f2b c9bc 6121 0bbc 2309 24be 72e5 e6bd
00000140: 94ae 04bd ecb7 ebbd f1b5 4fbc 927e 96be
00000150: a06e 91bd 5fcd 43be 38cd 40be 169e 7fbe
00000160: 0534 a6bd e63f f43d 2ef0 103e c858 1d3d
00000170: 26c2 e73c aa9c bdbd 615a 983d 13a6 57bf
00000180: d5bf 073e 3198 a43d 3d1f 3a3e b63e e2bc
00000190: 972b a2bd a0a7 cd3d 35b9 9dbc da7f dabd
000001a0: f821 91bc e89f 833d 0cba c03d aa51 a8bd
000001b0: f82d 183e e237 00be 4d6d 26be 6f00 cd3d
000001c0: 7de4 133e 5a21 113e 8e9e f43d c944 9cbc
000001d0: b272 e9bd 9631 debc d157 363e 4fc6 503d
000001e0: 8767 1ebe f079 c73d 20d7 db3c ccc6 44bd
000001f0: 4780 a83c 988e b53e 920c 943b 3249 53be
00000200: 9060 5a3e 6071 df3c 908a 75bd b50d 4cbe
00000210: d3e7 2dbe 2ada 25be 0276 c5bc 9083 923d
00000220: 66f3 8fbe c84d cfbd c8ca dcbd c45a 57be
00000230: 2743 50be 7442 aabe c6ae 34bc 3db4 dabd
00000240: e98e a6bd 3ed8 81be 25da b7bc 1ea0 0abd
00000250: 5b21 40be 4422 40be fee5 bebd f4ce acbd
00000260: f128 88be db51 6abe 76e0 0abe 9929 7dbe
00000270: fdea 8fbe 63fb 80bc e654 063e 8df6 8bbe
00000280: 190f 803e 7763 4bbe f21a 913d ae4a 51bd
00000290: e56b b53d 113c 84bb d563 273e aa1d 853d
000002a0: cc39 b53d 43b2 233d 8161 3f3e 73bb 103e
000002b0: e20f dfbc 5781 333d 3489 dd3d 7e8f 2f3e
000002c0: 75df 0d3e 329d 763e 572c f43d 4948 383e
000002d0: 21f3 dd3b 6e9d 413e 331d 4a3e 8f7b bfbd
000002e0: f28e 17be 28db e83d 7c7c 5abc 4b4b 3fbc
000002f0: 4422 dcbd 031d 1d3e d8f3 0c3f a4aa 53be
00000300: dde7 9abe ac57 163e 6e05 de3c d9f7 cc3b
00000310: 24a6 343e bfd6 be3c 808f f23d 6c4c 11be
00000320: 85ca 513e a55a c73d 0e12 e23d 27a5 44bd
00000330: a874 4bbd 00b5 f9bc 79b4 353e a1d1 5a3d
00000340: 0900 50bc afc3 bd3d d7b4 843d 8eb5 c13d
00000350: 9f75 82bc 78fe 35bd 830a 43be 647c 35bd
00000360: 8784 553e 1605 383e 7711 423e 55aa 06be
00000370: bb61 2abd 3b30 b43d 399f 82bd 0271 223e
00000380: 8288 fb3d 6885 8a3e 7fbf 9bbd 3988 8b3e
00000390: be96 df3d ae47 5e3d d3a7 b23b 1021 4c3d
000003a0: cc6f 333b 5af4 0a3e 0849 433e 6a6b 2f3e
000003b0: c172 593e df16 213d fabf 733d a327 ab3c
000003c0: 94d1 50bb 8547 26ba 0c20 053e e5d5 bdbd
000003d0: 0954 823d 2c3c 333e 277b 193e b140 883c
000003e0: 9253 12bc 628e 97bc 2c29 cb3d fc17 283d
000003f0: a575 473e 3979 3e3e 617d 3a3b da08 393e
-0.50162196 -0.1470778 0.23913765 -0.12149962 -0.26035228 -0.17040898 -0.14731799 -0.17728478
-0.13789865 -0.049028378 0.0134077305 0.10185096 -0.16323136 0.018082501 -0.20957644 -0.051728208
0.07463313 -0.08789853 0.035547335 -0.106374726 -0.10246826 -0.0042072563 -0.12436558 -0.048469745
-0.21100138 0.013758927 0.004584512 -0.052791823 0.01787134 -0.06630479 -0.014836362 -0.43981227
0.06240792 0.116874985 -0.14447515 0.1383748 0.022185324 0.17808127 0.013055143 -0.057081603
-0.112240225 -0.14368488 -0.102320515 0.09112322 -0.068739206 0.20618689 0.10376604 -0.17182587
0.06992939 -0.1714217 0.1644636 0.12060591 -0.13939583 -0.06906958 0.15215032 -0.012923047
0.1564244 -0.18459809 0.120235644 -0.19711298 0.16289204 0.1429865 0.08390383 0.2931949
0.2004563 -0.35998112 0.01792651 -0.1547073 0.07637409 -0.06978801 -0.16586491 -0.14928566
-0.09521789 -0.055340633 -0.05541617 -0.21385093 -0.024556873 -0.008491845 -0.1601911 -0.11274232
-0.032393053 -0.1150969 -0.012677656 -0.2939344 -0.07101178 -0.19121312 -0.18828285 -0.24962649
-0.08115391 0.1192625 0.14154121 0.038414747 0.02829082 -0.09258397 0.074391134 -0.84237784
0.13256772 0.08036841 0.18175979 -0.027617794 -0.0791847 0.100417376 -0.019253353 -0.10668917
-0.017716393 0.06426984 0.094104856 -0.08218701 0.14861286 -0.12521318 -0.16252632 0.10009848
0.1444263 0.14172879 0.119443044 -0.019075768 -0.113988295 -0.027123254 0.17806937 0.05097037
-0.1546918 0.097400546 0.026835978 -0.04804115 0.02056898 0.35460353 0.0045181 -0.2063339
0.21325898 0.027275741 -0.059946597 -0.19927104 -0.16982965 -0.16196504 -0.024104122 0.07154
-0.28115386 -0.101222575 -0.10780865 -0.21030718 -0.20338117 -0.33253825 -0.011027997 -0.10678909
-0.08132727 -0.25360292 -0.022442887 -0.033844106 -0.18762724 -0.18763071 -0.09321211 -0.08437911
-0.26593736 -0.22882788 -0.13562188 -0.247229 -0.2810897 -0.01574487 0.13118324 -0.2733654
0.2501152 -0.19862162 0.070852175 -0.05109661 0.0885847 -0.004035481 0.16346677 0.064997986
0.088489145 0.039964925 0.18689539 0.14134006 -0.027229253 0.04382452 0.10817185 0.17144582
0.13854773 0.24083403 0.1192252 0.17996325 0.006773368 0.18907711 0.19737701 -0.09349739
-0.14800623 0.11369926 -0.013335343 -0.011675666 -0.10748723 0.15343098 0.55059576 -0.20670563
-0.30255023 0.14681882 0.027102198 0.0062551317 0.17641503 0.023295758 0.11843777 -0.14189309
0.20487411 0.09734086 0.110386 -0.048009064 -0.0496718 -0.030481815 0.17744626 0.053422574
-0.012695321 0.09265839 0.06479805 0.09458457 -0.015925227 -0.044432133 -0.19046979 -0.04430808
0.20851336 0.1797069 0.18951975 -0.13150914 -0.04159711 0.08798262 -0.063780256 0.15863422
0.12281896 0.27054906 -0.07604884 0.27252367 0.10917424 0.054267578 0.005452135 0.04983622
0.0027379869 0.13569775 0.19070828 0.17130819 0.21235181 0.039328452 0.059509255 0.020892924
-0.00318632 -0.00063430547 0.13000506 -0.09269313 0.06363685 0.17503422 0.14988385 0.01663241
-0.0089310575 -0.01850051 0.09919962 0.0410385 0.19478472 0.1860093 0.002845608 0.18069783

decoder.model.3.weight f4 [32, 16, 4]
00000000: ec11 d7bd ed8b 9e3c e8ea 8bbd f61d a5bc
00000010: edc7 543d be90 943c a39c cebd ac79 37bd
00000020: 3d27 6b3d 68d4 873c e71b b43d 8690 013d
00000030: 8c60 9ebd b48e 4bbe a056 37be e30a 23bd
00000040: 3d35 85bd 9fd1 14bd 1a48 ae3d 382a 33be
00000050: 2f90 0e3d af32 463d d29f 593d a401 d23c
00000060: 0ec9 1dbd cf2e ca3d ee78 533c cf76 75bb
00000070: 97cd ae3d 8bac 4f3d eab9 fb3d 7a99 653b
00000080: 31d2 213e 855c 8e3d 7881 933d 1eb5 d43b
00000090: 77fd aa3d 5016 153d 7e49 873d e2ae 803d
000000a0: c972 e03c a86f e0bd 8b44 e9bc ac71 dbbd
000000b0: f9c1 01bd 5d98 b3bd 6f9d 6b3d bd23 b9bd
000000c0: 5a11 923d 9e5b afbc a4fa c83d 4d9f b83b
000000d0: 692d 1bbc c417 8ebd 9a9e cd3d dbb2 26be
000000e0: 09f8 593d 6e85 d93d 1d64 16bd 8e65 a8bd
000000f0: 3f25 d93c 1a72 8ebd 8cc5 b83d 4d8a dbbc
00000100: 2e17 a03d 7bb7 c33a b2d1 513d 52f4 663d
00000110: 89dd 023e 0db0 093e 85ee 263d e0a8 1fbd
00000120: f62e 913d 2426 d4bc b86c 083c 9fa7 673d
00000130: 4578 433e b3fd 433e 3561 af3d 04f5 b93d
00000140: 0258 f73c 9e51 54bc f44f 2e3e b95e 043c
00000150: 11c2 95bd 56c1 933d 2680 9a3d 497e e5bd
00000160: aa2a abbd de68 0b3d e62a cb3c ba40 99bd
00000170: 5183 34bd 1d4d d5bd 1e6d 283b 76af c3bc
00000180: 08ed 4dbd d063 8a3d 1969 893d 0dc0 2cbd
00000190: 52a0 03be 3ebc 19bc b391 a6bd 3c81 dbbc
000001a0: 347e bcbc 3963 993d 034b 093e 57c4 1ebd
000001b0: f80e 02bd 0c35 40bc 3f36 9e3c 7fb5 31bc
000001c0: 5a99 ce3d f8a0 203d 5301 423e eac5 b63d
000001d0: 9e59 503d 86cd f0bd abb4 883d 09b1 f23c
000001e0: c318 acbc 6a30 91bd 3d04 9f3d 6ed1 763d
000001f0: f277 debc 8eb8 a73d de5a f13d 06f8 543d
00000200: 6ab6 fdbd 4c26 e7bd 2744 35bc 9c59 19be
00000210: 0932 1e3d 55d9 08be 6ba0 4fbc 2de9 01be
00000220: 32cd 75bd a022 803d b9c3 9a3d b75d 913d
00000230: b595 6f3c 1dc6 863c f263 94bc 4908 463d
00000240: bd8e 983d 0f58 49bd 7cc6 2b3e e3e6 64bd
00000250: f011 5e3d cc52 bfbc 9dd8 643d 6274 293d
00000260: 486c fb3c 124f 993d f69c 53bc 461e 183d
00000270: 6c14 cebb 965c 6b3c 9b0f f3bd 8b1b 94bd
00000280: 0371 573d 0f67 e53d 6b89 4dbc 4fbc 52bd
00000290: b248 b3bd dddc 873d a296 573d bb16 673d
000002a0: db0f 2bbe 4db5 60bd 7677 b53d 117e 143c
000002b0: 5585 763d 4d04 4bbd 1d34 3abd 62ca ecbd
000002c0: 8ab3 333e 4ef9 193e 3797 043e 4e0a e03d
000002d0: 8d90 12bd 0a3b 103c d897 45bd 602c 4dbe
000002e0: 3403 58bc 590b 1dbe 04ce 00bd 4bcf bd3d
000002f0: e3a4 683d 0a85 bb3c ffc9 fc3d d23f 0c3e
00000300: 5260 a6bd 02b9 8b3c 4bbf 5fbb 0c46 29bd
00000310: 6844 773d 69a3 473d ac36 a03d fce4 a53d
00000320: fc80 6dbb f635 9d3d 8b1c b23d 6c6d 68bd
00000330: f9df 9c3c cd31 9bbc ad34 333d fc88 a63d
00000340: 87ed abbc 885d fd3c f260 9f3d adc6 c2bd
00000350: caed da3c b606 903d a31f 8e3d 904c 7fbd
00000360: 7d4d acbd 1b42 9abd 9857 6e3d 4755 09be
00000370: 30ec 4fbc f734 93bc bc78 8a3d cb21 443c
00000380: 701a ce3c 04b3 31bc 0be8 2a3e 7071 8cbd
00000390: ef09 5a3d 71e3 3a3c 014a e23c 33ac 86bd
000003a0: 8859 54bc 5a90 6a3d fda9 803c 187d 563a
000003b0: 552c 50bd 14b1 933d 0cf8 e6bb e930 87bc
000003c0: 3231 093e b7cf ce3c 8f87 323e 77b8 083e
000003d0: 4fcc 5e3d a4f8 51bd 17b2 2fbd 409a 603d
000003e0: faf7 873d 95b5 1f3d d819 933d 53ae 69bd
000003f0: 3140 57bc 9771 3a3c 09fb a13c 009a ac3d
-0.10501465 0.019353831 -0.06831914 -0.020155888 0.051948477 0.018135425 -0.1008847 -0.04479377
0.057410467 0.016580775 0.087943844 0.03163197 -0.077332586 -0.19878656 -0.17904139 -0.039805304
-0.06504295 -0.036332723 0.08509846 -0.17496574 0.034805473 0.04838818 0.053130932 0.025635548
-0.03852182 0.09872209 0.01290725 -0.0037454849 0.08535307 0.05070166 0.1229132 0.0035034106
0.15802838 0.069512405 0.072024286 0.0064913174 0.08349126 0.036398232 0.066058144 0.06283356
0.027398484 -0.10958797 -0.028475067 -0.107150406 -0.031679127 -0.08769295 0.057523187 -0.0904002
0.07132216 -0.021405991 0.09813431 0.0056342245 -0.009471276 -0.06938127 0.100400165 -0.16279165
0.05321506 0.10621153 -0.03671657 -0.08222495 0.026507018 -0.06955357 0.09022054 -0.026799345
0.07816921 0.0014932001 0.05122537 0.056385346 0.12779821 0.13446064 0.040754814 -0.03897941
0.07089035 -0.025897093 0.008326702 0.05655634 0.19088848 0.19139747 0.08563463 0.09079936
0.030193333 -0.012958912 0.17022687 0.008079224 -0.07312406 0.0721461 0.075439736 -0.112057276
-0.08357747 0.034035556 0.024800729 -0.07483049 -0.044070546 -0.10415099 0.0025699805 -0.023887377
-0.05027488 0.06757319 0.06709499 -0.04217534 -0.12854126 -0.009383259 -0.08133259 -0.026795022
-0.023009397 0.07489628 0.13407521 -0.038761463 -0.031752557 -0.011731397 0.019312976 -0.010846495
0.10087843 0.03921601 0.18945818 0.08924468 0.050866716 -0.117579505 0.06675085 0.029625433
-0.021007901 -0.070893124 0.0776448 0.06025832 -0.027156804 0.08189498 0.1178491 0.051994346
-0.12388308 -0.112866014 -0.011063612 -0.1497559 0.038621936 -0.13364156 -0.012672524 -0.12686606
-0.060010143 0.06256604 0.075568624 0.07097953 0.014623095 0.01645189 -0.018114064 0.048347745
0.074491 -0.049156245 0.16774935 -0.055884253 0.054216325 -0.02335491 0.05587064 0.041370757
0.030691281 0.074857846 -0.01291584 0.037138246 -0.0062890556 0.014365336 -0.11868211 -0.07231816
0.05259801 0.112012975 -0.01254497 -0.051449116 -0.087541 0.06633923 0.05263389 0.05641816
-0.16705267 -0.054860402 0.08860676 0.00906326 0.06018575 -0.04956465 -0.045459855 -0.11562039
0.17548957 0.15036508 0.12948309 0.109394655 -0.035782386 0.0088031385 -0.048240513 -0.20036459
-0.013184357 -0.1533636 -0.03144647 0.092680536 0.056797873 0.022890586 0.12343215 0.1369622
-0.081238404 0.017055992 -0.003414112 -0.041326568 0.06036797 0.048739824 0.07822928 0.08100316
-0.003624021 0.07676308 0.086968504 -0.056744978 0.019149767 -0.018944645 0.043751407 0.081315964
-0.020987285 0.030928388 0.07782163 -0.09510551 0.026724715 0.0703253 0.06939628 -0.062328875
-0.08413217 -0.0753214 0.058189005 -0.13411437 -0.012690589 -0.017969592 0.067613095 0.0119709475
0.02515909 -0.010845903 0.1669008 -0.06857574 0.05323213 0.011406765 0.027623178 -0.06575813
-0.012960799 0.05726657 0.015706057 0.00081820926 -0.05082353 0.07211509 -0.0070486125 -0.016502814
0.13397673 0.02524553 0.17434524 0.13351618 0.054394063 -0.051262513 -0.04289445 0.054834604
0.06639095 0.03899153 0.07182664 -0.057051014 -0.013137863 0.011379621 0.019773023 0.08427811

decoder.model.3.bias f4 [16]
00000000: 9613 263e 1e99 0e3e c407 283e 08ef 2e3d
00000010: a58b 21bd 1827 993b 58a3 aabc 5d62 043e
00000020: 2395 c7bd e784 26be f962 fd3d 00e0 ac3d
00000030: f9df b7bd 6b20 723b 3807 133e 07d4 f1bd
0.16218409 0.13925597 0.16409212 0.042708427 -0.039439816 0.00467385 -0.020829841 0.12928148
-0.097452424 -0.16261636 0.12372393 0.08441162 -0.08978266 0.0036945592 0.14358222 -0.11808019
